cl.summary()
_________________________________________________________________
Layer (type)                 Output Shape              Param #   
=================================================================
dense_18 (Dense)             (None, 700)               3500      
_________________________________________________________________
dropout_11 (Dropout)         (None, 700)               0         
_________________________________________________________________
dense_19 (Dense)             (None, 500)               350500    
_________________________________________________________________
dropout_12 (Dropout)         (None, 500)               0         
_________________________________________________________________
dense_20 (Dense)             (None, 500)               250500    
_________________________________________________________________
dropout_13 (Dropout)         (None, 500)               0         
_________________________________________________________________
dense_21 (Dense)             (None, 500)               250500    
_________________________________________________________________
dropout_14 (Dropout)         (None, 500)               0         
_________________________________________________________________
dense_22 (Dense)             (None, 100)               50100     
_________________________________________________________________
dropout_15 (Dropout)         (None, 100)               0         
_________________________________________________________________
dense_23 (Dense)             (None, 10)                1010      
_________________________________________________________________
dropout_16 (Dropout)         (None, 10)                0         
_________________________________________________________________
dense_24 (Dense)             (None, 5)                 55        
=================================================================
Total params: 906,165
Trainable params: 906,165
Non-trainable params: 0
_________________________________________________________________
